assets/models/cvd_risk_model.tflite (tflite, 5784 bytes, 5 tensors)

arith.constant f4 [1, 15]
0	0x3f48ae88	0.78391314
1	0x3ded096a	0.11574061
2	0x3f345dfc	0.7045591
3	0x3f600c10	0.87518406
4	0x3e2cb7e1	0.16867019
5	0x3f41785d	0.75574285
6	0x3f364a2d	0.71206933
7	0x3f56af5e	0.8386134
8	0x3ec788f2	0.38971668
9	0x3eb9f412	0.36319023
10	0x3f2030dd	0.6257456
11	0x3f264902	0.6495515
12	0xbeb0b9b9	-0.34516695
13	0xbf204b51	-0.62614924
14	0x3f4d3604	0.80160546

arith.constant1 f4 [15, 25]
0	0xbe140085	-0.14453323
1	0xbd5ae4f2	-0.053440996
2	0xbdf2a71e	-0.11848281
3	0xbdaa60d0	-0.08319247
4	0xbd488ff4	-0.04896541
5	0xbdad95c6	-0.08475833
6	0x3b7bd9bd	0.0038429343
7	0x3ea884c2	0.32913786
8	0xbe7bfb6d	-0.2460763
9	0xbe9444e4	-0.2895881
10	0x3d97a616	0.07404725
11	0x3b249b59	0.0025117008
12	0xbdc6dd4d	-0.097101785
13	0xbe13d406	-0.1443635
14	0xbe597111	-0.21234538
15	0x3ebbf486	0.36709994
16	0xbdd0a1c3	-0.101871036
17	0xbd6d4e2a	-0.05793587
18	0xbf00c1db	-0.502958
19	0xbe3a2f00	-0.18181992
20	0xbdbb54a3	-0.091470025
21	0xbde84f44	-0.11343244
22	0xbea06d7d	-0.31333533
23	0x3e396dac	0.18108243
24	0xbd9a3041	-0.07528735
25	0x3f07a225	0.5298179
26	0x3ef5473a	0.47905904
27	0x3ee9581b	0.45575032
28	0x3f086665	0.5328124
29	0x3ef237b9	0.47308138
30	0x3e2f6301	0.1712761
31	0xbe107e57	-0.14110695
32	0x3de2035a	0.110357955
33	0x3dfd6b66	0.12374
34	0x3d2cad3c	0.042157397
35	0xbe797435	-0.24360736
36	0x3db683a7	0.089118294
37	0x3e74f92f	0.23923181
38	0x3e417908	0.18893826
39	0xbd2b8f9b	-0.041885
40	0x3ec20a87	0.37898657
41	0x3f0e3ef4	0.5556481
42	0x3f11652f	0.5679502
43	0x3f16009e	0.5859469
44	0xbe9ee7b6	-0.31036156
45	0x3f20cfcf	0.6281709
46	0x3f0cbefa	0.5497891
47	0x3ef8a000	0.4855957
48	0xbe326615	-0.17421754
49	0x3f09e2fa	0.53861964
50	0xbe00e29e	-0.12586448
51	0xbd778072	-0.06042523
52	0xbdce5d50	-0.10076392
53	0xbdde3ea4	-0.108517915
54	0xbd8463cc	-0.06464347
55	0x3eaf2e2b	0.3421491
56	0xbe1d3f6c	-0.15356225
57	0xbe374543	-0.17897515
58	0x3cd3997f	0.025830029
59	0x3e24f014	0.16107208
60	0x3a2cd5b1	0.0006593122
61	0xbe0df027	-0.13861142
62	0xbe0f3b24	-0.13987404
63	0xbe2d0fb5	-0.16900523
64	0x3e81d9a1	0.2536135
65	0xbe94664f	-0.28984305
66	0xbe0dccd0	-0.13847661
67	0xbdbc2440	-0.09186602
68	0xbed835c0	-0.42228508
69	0x3e0197af	0.12655519
70	0xbe08aadb	-0.13346426
71	0xbe066cc5	-0.1312743
72	0xbbf05bff	-0.0073351855
73	0xbb88c55a	-0.0041739168
74	0xbdc21793	-0.09477153
75	0xbe33f1dd	-0.17572732
76	0xbd73d080	-0.059525013
77	0xbde7b92b	-0.11314615
78	0xbded51ee	-0.115878925
79	0xbd89bcad	-0.0672544
80	0x3d2c900f	0.042129572
81	0x3d9326f4	0.07185164
82	0xbe07a0a1	-0.13244869
83	0xbdcc15a0	-0.09965062
84	0xbe1380f0	-0.14404655
85	0x3cd9aab6	0.02657066
86	0x3dc11507	0.09427839
87	0xbe3e29ba	-0.18570605
88	0x3d7fe060	0.06246984
89	0xbccd1821	-0.02503592
90	0x3d9d3721	0.07676531
91	0xbe3a7d7f	-0.18211935
92	0xbdbbc72b	-0.09168848
93	0xbed1bcda	-0.40964395
94	0xbd6204b4	-0.055180266
95	0xbe1e2571	-0.1544397
96	0xbe2a031c	-0.16602749
97	0xbde1bd8b	-0.110224806
98	0x3e04ed88	0.12981236
99	0xbe00dc9c	-0.12584156
100	0xbc50514c	-0.012714695
101	0xbc33fd6d	-0.010985714
102	0xbc24a375	-0.010048737
103	0xbc4a7bd1	-0.012358622
104	0xbc5f823a	-0.013641888
105	0x3d945eba	0.0724463
106	0x3d7f342b	0.06230561
107	0xbe29d351	-0.16584517
108	0xbd54f025	-0.051986832
109	0xbe28cba0	-0.16483927
110	0xbad13221	-0.0015960374
111	0xbd80de9d	-0.0629246
112	0xbc70effb	-0.014705653
113	0xbd6be9f0	-0.057596147
114	0x3cf3ecff	0.029776094
115	0x3d8e1494	0.06937519
116	0xbc529e20	-0.012855083
117	0xbc868f34	-0.016425706
118	0x3d435158	0.047684997
119	0x3de3efcf	0.11129724
120	0xbc501b12	-0.012701767
121	0xbc8573f3	-0.01629064
122	0x3ce92de7	0.02846427
123	0x3d0470d3	0.03233416
124	0xbc36f12f	-0.011165901
125	0xbe7d0392	-0.24708393
126	0xbd8002e0	-0.06250548
127	0xbdaf9576	-0.08573429
128	0xbe05a5ab	-0.13051479
129	0xbd86ce31	-0.06582297
130	0xbde4a8ca	-0.111650065
131	0xbcb07a19	-0.021542596
132	0xbe04a92f	-0.12955163
133	0x3ea818ea	0.32831508
134	0x3e2f9c96	0.17149577
135	0xbd5b4700	-0.053534508
136	0xbc78a499	-0.015175962
137	0xbdeeae14	-0.116542965
138	0xbe275e1c	-0.16344494
139	0x3e01bdaf	0.12670015
140	0xbe3b5c98	-0.1829704
141	0xbe0e0763	-0.13870005
142	0xbdda704d	-0.10665951
143	0xbe9153e9	-0.2838433
144	0x3e1e5b2b	0.15464465
145	0xbdfa14de	-0.12211011
146	0xbe002d86	-0.12517366
147	0x3cb24c28	0.02176483
148	0x3d934510	0.07190907
149	0xbde7e44c	-0.11322841
150	0x3f6880e5	0.9082168
151	0x3f3b2ff1	0.7312003
152	0x3f4de767	0.80431217
153	0x3f5ced0a	0.8629919
154	0x3f569c69	0.8383241
155	0x3e84f5ca	0.25968772
156	0xbeca901c	-0.39563072
157	0x3e4388d8	0.1909517
158	0xbe29d374	-0.16584569
159	0x3c320c8d	0.01086725
160	0x3e87a4cd	0.2649292
161	0x3ec1fbde	0.37887472
162	0x3f0a4cd9	0.5402351
163	0xbe844ac7	-0.258383
164	0xbe95b7a6	-0.29241675
165	0x3e9ed566	0.31022185
166	0x3f5b165a	0.8558098
167	0x3f171f5d	0.5903223
168	0x3e8c6659	0.27421835
169	0xbe708f41	-0.23492147
170	0x3f72f4e9	0.94904953
171	0x3f63ea65	0.8902953
172	0x3e4e954f	0.20174144
173	0xbe8d2a47	-0.27571318
174	0x3f4f65f9	0.8101497
175	0xbe59dd65	-0.21275862
176	0xbd8c381e	-0.06846641
177	0xbdc61da9	-0.09673626
178	0xbdc4c586	-0.09607987
179	0xbd98dca8	-0.07463962
180	0x3de70572	0.112803355
181	0x3e85663b	0.26054558
182	0xbe544cb4	-0.20732385
183	0xbd480dfb	-0.048841458
184	0xbe52c378	-0.20582378
185	0x3e0a5171	0.1350763
186	0xbe81c521	-0.2534571
187	0xbe72007d	-0.23632999
188	0xbe8e1385	-0.27749267
189	0x3e0445b2	0.12917212
190	0x3ea228e3	0.3167182
191	0xbdd0905b	-0.101837836
192	0xbdecbb88	-0.11559206
193	0xbf043ecc	-0.5165832
194	0xb98dc6be	-0.0002704169
195	0xbda9e83f	-0.082962506
196	0xbd740e62	-0.05958403
197	0xbe73897e	-0.23782918
198	0x3d08a6a0	0.03336203
199	0xbdda50fc	-0.10659978
200	0x3f4d7f66	0.8027252
201	0x3f3f748a	0.747872
202	0x3f44376f	0.76647085
203	0x3f6653ca	0.899716
204	0x3f3feaa3	0.749674
205	0x3e28e73e	0.16494462
206	0x3e8ca0d3	0.2746645
207	0xbce2a335	-0.027665714
208	0x3ea949af	0.3306403
209	0x3e60616a	0.2191216
210	0x3e2dff92	0.16992024
211	0x3d22043f	0.03955483
212	0x3f3f2155	0.74660236
213	0x3ea10fb3	0.3145729
214	0x3ddeb656	0.108746216
215	0x3ea0de73	0.31419715
216	0x3f40f536	0.7537416
217	0x3f344d79	0.70430714
218	0x3de7ceba	0.11318727
219	0xbc6d7c3e	-0.014494954
220	0x3efff6f7	0.49993107
221	0x3f36960e	0.71322715
222	0x3d075c9c	0.033047304
223	0xbcb669b6	-0.022267204
224	0x3f47b040	0.7800331
225	0x3ef9c919	0.48786238
226	0x3f44418a	0.76662505
227	0x3f41e961	0.7574673
228	0x3f4c7624	0.7986777
229	0x3f44205e	0.7661189
230	0x3e9303dc	0.28713882
231	0xbddb5eb8	-0.107114255
232	0x3dbc45b3	0.091929816
233	0x3e69e108	0.22839749
234	0xbe6de25b	-0.23230879
235	0x3d92ee15	0.07174317
236	0xbe3fd999	-0.1873535
237	0x3ecef002	0.40417486
238	0xbe47556c	-0.1946618
239	0x3ed7d2e7	0.42153093
240	0x3e05aac2	0.1305342
241	0x3f3de235	0.7417329
242	0x3f49c371	0.78813845
243	0x3f182c7b	0.5944287
244	0x3da86fc6	0.08224444
245	0x3f42af45	0.7604869
246	0x3f28ccf3	0.6593773
247	0x3e7cb7b1	0.24679448
248	0x3d9ba723	0.07600238
249	0x3f4483a2	0.76763356
250	0xbe22eb43	-0.15910058
251	0xbda76337	-0.081732206
252	0xbe0a42de	-0.1350207
253	0xbe0a3ddd	-0.13500161
254	0xbdac6474	-0.084175974
255	0xbaae191d	-0.0013282631

sequential_1/dense_1_2/BiasAdd/ReadVariableOp f4 [15]
0	0x3d3ce8bf	0.0461204
1	0xbeb2c2b8	-0.34914184
2	0x3d64c777	0.055854287
3	0x3df7daa9	0.12102253
4	0xbd250496	-0.040287577
5	0x3d816117	0.063173465
6	0xbe9b84fd	-0.303749
7	0x3c8b5294	0.01700715
8	0xbe928147	-0.28614256
9	0xbe9e4642	-0.30912977
10	0x3d4a2f37	0.049361434
11	0xbf0f9c39	-0.5609775
12	0x3ea25df7	0.31712314
13	0x3e939be8	0.28829885
14	0xbdfcc36e	-0.12341963

sequential_1/dense_1/BiasAdd/ReadVariableOp f4 [25]
0	0x3eb45087	0.35217687
1	0x3e2db3bd	0.16963096
2	0x3e9f0f34	0.31066287
3	0x3ec46ce0	0.38364315
4	0x3e243acf	0.16038059
5	0xbe9c0879	-0.30475214
6	0x3eb075bb	0.3446482
7	0x3e938e47	0.28819486
8	0x3eb349da	0.35017282
9	0x3eb94750	0.3618722
10	0xbefa43af	-0.48879763
11	0xbecc6d64	-0.39927208
12	0x3e6c1f8c	0.23058909
13	0x3eaec15a	0.3413189
14	0xbee20dc6	-0.44151133
15	0xbeb5dd2c	-0.35520303
16	0x3eaf8bc1	0.3428631
17	0x3e8ff137	0.2811372
18	0xbefd8e68	-0.4952271
19	0x3e9ee5d3	0.31034717
20	0x3eb7b4fe	0.35880274
21	0x3ec2d968	0.38056493
22	0xbf14f93c	-0.581928
23	0x3ee1f61f	0.44133088
24	0x3e9414b4	0.28922045

sequential_1/dense_1/MatMul f4 [25, 16]
0	0xbd5ebc47	-0.054378774
1	0xbe91bb71	-0.2846332
2	0xbdc36cd9	-0.095422454
3	0xbe16ac03	-0.14714055
4	0xbe48a6a8	-0.19594824
5	0xbe0f04a0	-0.13966608
6	0xbe4620a9	-0.19348396
7	0xbe148739	-0.14504708
8	0xbe1a2463	-0.15052943
9	0xbe2b721a	-0.16742745
10	0xbe2c679a	-0.16836396
11	0xbe379b03	-0.17930226
12	0xbe251b0b	-0.16123597
13	0xbdecb465	-0.11557845
14	0xbdc2b9f7	-0.09508126
15	0xbc4ee2da	-0.012627328
16	0xbd13f543	-0.03612257
17	0xbe201586	-0.1563321
18	0xbd965e4a	-0.07342203
19	0xbe073154	-0.13202411
20	0xbdd95b74	-0.106131464
21	0xbdccfe08	-0.1000939
22	0xbdf8f03f	-0.12155198
23	0xbdd3dada	-0.10344477
24	0xbdb33aaa	-0.08751424
25	0xbdba5ce6	-0.0909975
26	0xbdd5c274	-0.104374796
27	0xbd87c113	-0.06628623
28	0xbd9f1763	-0.077681325
29	0xbda5a3a5	-0.08087853
30	0xbdd65c09	-0.10466773
31	0xbc88ae22	-0.016684595
32	0xbd3c669b	-0.04599629
33	0xbe3c2036	-0.18371662
34	0xbe1af857	-0.15133797
35	0xbe143f50	-0.14477277
36	0xbe0ae8f0	-0.13565421
37	0xbe2af0e0	-0.16693449
38	0xbe4f33d2	-0.20234612
39	0xbe580ae1	-0.210979
40	0xbe028835	-0.12747271
41	0xbdef6745	-0.11689619
42	0xbe080767	-0.13284074
43	0xbe1345e3	-0.14382128
44	0xbdc90548	-0.098154604
45	0xbdae7368	-0.08518106
46	0xbd6a5e2f	-0.057218727
47	0xbc68a3c0	-0.014199197
48	0xbd96986b	-0.0735329
49	0xbe3c1a2d	-0.1836936
50	0xbe0b667c	-0.13613313
51	0xbe0bd90d	-0.13657017
52	0xbe221c75	-0.15831168
53	0xbe411b08	-0.18857968
54	0xbe2c192c	-0.16806477
55	0xbe210dbe	-0.15727898
56	0xbe1d76fe	-0.15377423
57	0xbde82b92	-0.113364354
58	0xbe255b5f	-0.16148137
59	0xbde4b0fe	-0.11166571
60	0xbdd2df78	-0.102965295
61	0xbe063315	-0.13105424
62	0xbdc0d112	-0.09414877
63	0xbc7522ba	-0.014961893
64	0xbd5a3fdf	-0.05328357
65	0xbe25f903	-0.16208272
66	0xbd9e97e1	-0.07743812
67	0xbe106b41	-0.14103414
68	0xbddaccfb	-0.10683628
69	0xbde949d3	-0.11391034
70	0xbe15c21f	-0.14624833
71	0xbddc5b5f	-0.10759615
72	0xbdb9afc8	-0.09066731
73	0xbdbc9687	-0.09208398
74	0xbde1c734	-0.11024323
75	0xbd931ed6	-0.07183616
76	0xbda06521	-0.07831789
77	0xbd9b135e	-0.075720534
78	0xbda50647	-0.08057838
79	0xbc818f62	-0.01581544
80	0x3e2bf3d7	0.16792236
81	0xbe03e751	-0.12881209
82	0xbe3c91ef	-0.18415044
83	0x3e858ee3	0.26085576
84	0x3f0153ce	0.505185
85	0x3e1c3187	0.15253268
86	0x3eeffd41	0.46872905
87	0xbe202280	-0.1563816
88	0x3e6aef1a	0.22942773
89	0x3eb7bb5a	0.35885125
90	0x3e85b12e	0.2611174
91	0x3dc371eb	0.095432125
92	0xbe02bb1a	-0.12766686
93	0xbe802754	-0.25030005
94	0xbe705d67	-0.2347313
95	0x3eba5d73	0.3639942
96	0xbe9183b7	-0.28420803
97	0xbe9ddfd9	-0.30834845
98	0xbe6f5227	-0.23371182
99	0x3b7437c9	0.0037264696
100	0xbe2ca333	-0.1685913
101	0xbd945d08	-0.07244307
102	0x3d8fb420	0.07016778
103	0x3d5fec89	0.054668937
104	0xbe80b515	-0.25138155
105	0xbd95e149	-0.0731836
106	0xbe3da3c4	-0.18519503
107	0x3ca61db6	0.02027784
108	0x3dac6dec	0.084194034
109	0xbe544059	-0.20727672
110	0x3da5af5a	0.08090086
111	0x3e344e6c	0.1760804
112	0xbdef4e0e	-0.116848096
113	0x3d4ad2e6	0.049517535
114	0xbda177af	-0.07884156
115	0x3d8315d1	0.064006455
116	0xbc2eb291	-0.010662691
117	0x3d739d05	0.059475917
118	0x3d345e7a	0.044035412
119	0xbdc345c6	-0.095347926
120	0xbd01a480	-0.03165102
121	0x3d18c970	0.03730148
122	0x3d390371	0.045169298
123	0x3d8864db	0.06659862
124	0x3c1af86d	0.009458643
125	0x3c9d4425	0.019197533
126	0x3c87b11b	0.016563943
127	0x3e963066	0.293338
128	0xbea18ada	-0.31551248
129	0xbdd429fe	-0.10359572
130	0xbe0e80f5	-0.1391638
131	0x3b31fa67	0.0027157308
132	0xbe2cd26f	-0.16877149
133	0x3d52de8d	0.051481772
134	0x3c2be0e5	0.010490631
135	0xbecba8ef	-0.39777324
136	0xbe0ed0cf	-0.13946842
137	0xbe1eebc4	-0.15519625
138	0xbe29682a	-0.16543642
139	0xbccabb7a	-0.024747599
140	0x3e64e60e	0.22353384
141	0xbe8734b5	-0.264074
142	0xbe4d99ac	-0.20078152
143	0x3e6156ab	0.22005717
144	0xbe18a832	-0.14907911
145	0xbe817019	-0.25280836
146	0x3e06ce4b	0.13164632
147	0xbeece184	-0.46265805
148	0xbe118ab0	-0.14213061
149	0xbda3ad67	-0.07992058
150	0xbe9a74c4	-0.3016721
151	0xbd3aec71	-0.045635644
152	0x3e6f34de	0.23360011
153	0xbe86e3d5	-0.26345697
154	0xbe8d3b69	-0.2758439
155	0xbe77f4d9	-0.24214496
156	0x3dc73bf1	0.0972823
157	0x3e15021a	0.14551583
158	0x3e87a044	0.2648946
159	0x3e92b039	0.28650072
160	0xbe5385de	-0.20656535
161	0x3d5aab33	0.053385925
162	0x3df789f4	0.12086859
163	0xbd9758ab	-0.07389959
164	0xbda3eede	-0.08004545
165	0x3c92621a	0.017869044
166	0x3f006b11	0.5016337
167	0x3e70ebf1	0.23527505
168	0x3eb91016	0.36145085
169	0x3e5146ff	0.20437239
170	0xbe3c77a2	-0.18405011
171	0x3eca3727	0.39495203
172	0xbdee8ff1	-0.116485484
173	0x3eafae81	0.34312823
174	0xbd2d6243	-0.042330038
175	0x3cd78527	0.02630861
176	0xbe586e26	-0.21135768
177	0x3e50e94b	0.20401494
178	0x3ef9972c	0.48748147
179	0x3f02f40e	0.5115365
180	0x3e8b2f24	0.27184403
181	0x3e842a76	0.25813645
182	0x3d530678	0.05151984
183	0x3dfdacad	0.12386451
184	0xbbff556f	-0.007792167
185	0xbe41efbe	-0.1893911
186	0x3eaaa880	0.3333168
187	0xbe45f9f8	-0.19333637
188	0x3e825f0c	0.2546314
189	0xbdfb0d4f	-0.12258398
190	0x3e98b305	0.2982408
191	0x3e060534	0.13087922
192	0xbe428962	-0.1899772
193	0xbe5e6575	-0.2171839
194	0xbe61d99c	-0.22055668
195	0xbe9da152	-0.3078714
196	0xbd2ced47	-0.042218473
197	0xbd06cc63	-0.032909762
198	0xbe8789ab	-0.2647222
199	0xbd92a2f4	-0.07159987
200	0xbc7dcfd2	-0.015491443
201	0xbe238dd0	-0.15972066
202	0xbd123df0	-0.0357036
203	0xbe29c0d1	-0.1657746
204	0xbe1030ce	-0.14081118
205	0xbe3e4852	-0.18582276
206	0xbda150c7	-0.07876735
207	0xbc4b6743	-0.012414756
208	0xbeb344e6	-0.35013503
209	0xbe19b3aa	-0.15009943
210	0xbc99e623	-0.018786496
211	0xbf0a960c	-0.54135203
212	0xbe6360b5	-0.2220486
213	0x3d48bbdc	0.04900728
214	0xbe8d83f2	-0.2763973
215	0xbe9bbf96	-0.30419606
216	0xbeaf59ff	-0.3424835
217	0xbeb4d46a	-0.3531831
218	0xbd027529	-0.031850014
219	0x3e4194d5	0.18904431
220	0x3c9c6b70	0.019094199
221	0xbe892e8f	-0.26793334
222	0xbe99ad7b	-0.30015168
223	0x3e8d5310	0.27602434
224	0x3eb45e36	0.35228127
225	0x3ee2d2d8	0.44301486
226	0xbdfee7b0	-0.12446535
227	0x3eca1a2f	0.39473101
228	0x3ee3ba47	0.44478056
229	0x3eee9160	0.46595287
230	0xbd785773	-0.060630273
231	0x3dc4613e	0.0958886
232	0xbdc79b38	-0.097464025
233	0x3e8cb503	0.2748185
234	0x3eca47ac	0.39507806
235	0xbd903d28	-0.07042915
236	0xbe52618d	-0.20545025
237	0x3e3bce01	0.18340303
238	0xbe58ed09	-0.21184172
239	0x3dad7515	0.08469597
240	0x3ebe2e87	0.37144873
241	0x3e8e7b8e	0.2782864
242	0x3e67470d	0.22585697
243	0xbde32510	-0.110910535
244	0x3e8f60fe	0.28003687
245	0x3e8009f0	0.25007582
246	0x3dd32cf6	0.1031131
247	0x3dcbe134	0.099550635
248	0xbc689712	-0.014196174
249	0xbcdc6887	-0.026905311
250	0x3e8c0387	0.2734644
251	0xbc884fdb	-0.01663964
252	0x3e9116eb	0.28337798
253	0xbe32cf42	-0.17461875
254	0x3e14bb88	0.14524662
255	0x3ebd345a	0.36954004
